{"format": "torch", "nodes": [{"name": "encoder", "id": 137277946094608, "class_name": "MixVisionTransformerEncoder(\n  (patch_embed1): OverlapPatchEmbed(\n    (proj): Conv2d(3, 64, kernel_size=(7, 7), stride=(4, 4), padding=(3, 3))\n    (norm): LayerNorm((64,), eps=1e-05, elementwise_affine=True)\n  )\n  (patch_embed2): OverlapPatchEmbed(\n    (proj): Conv2d(64, 128, kernel_size=(3, 3), stride=(2, 2), padding=(1, 1))\n    (norm): LayerNorm((128,), eps=1e-05, elementwise_affine=True)\n  )\n  (patch_embed3): OverlapPatchEmbed(\n    (proj): Conv2d(128, 320, kernel_size=(3, 3), stride=(2, 2), padding=(1, 1))\n    (norm): LayerNorm((320,), eps=1e-05, elementwise_affine=True)\n  )\n  (patch_embed4): OverlapPatchEmbed(\n    (proj): Conv2d(320, 512, kernel_size=(3, 3), stride=(2, 2), padding=(1, 1))\n    (norm): LayerNorm((512,), eps=1e-05, elementwise_affine=True)\n  )\n  (block1): ModuleList(\n    (0): Block(\n      (norm1): LayerNorm((64,), eps=1e-06, elementwise_affine=True)\n      (attn): Attention(\n        (q): Linear(in_features=64, out_features=64, bias=True)\n        (kv): Linear(in_features=64, out_features=128, bias=True)\n        (attn_drop): Dropout(p=0.0, inplace=False)\n        (proj): Linear(in_features=64, out_features=64, bias=True)\n        (proj_drop): Dropout(p=0.0, inplace=False)\n        (sr): Conv2d(64, 64, kernel_size=(8, 8), stride=(8, 8))\n        (norm): LayerNorm((64,), eps=1e-05, elementwise_affine=True)\n      )\n      (drop_path): Identity()\n      (norm2): LayerNorm((64,), eps=1e-06, elementwise_affine=True)\n      (mlp): Mlp(\n        (fc1): Linear(in_features=64, out_features=256, bias=True)\n        (dwconv): DWConv(\n          (dwconv): Conv2d(256, 256, kernel_size=(3, 3), stride=(1, 1), padding=(1, 1), groups=256)\n        )\n        (act): GELU(approximate='none')\n        (fc2): Linear(in_features=256, out_features=64, bias=True)\n        (drop): Dropout(p=0.0, inplace=False)\n      )\n    )\n    (1-2): 2 x Block(\n      (norm1): LayerNorm((64,), eps=1e-06, elementwise_affine=True)\n      (attn): Attention(\n        (q): Linear(in_features=64, out_features=64, bias=True)\n        (kv): Linear(in_features=64, out_features=128, bias=True)\n        (attn_drop): Dropout(p=0.0, inplace=False)\n        (proj): Linear(in_features=64, out_features=64, bias=True)\n        (proj_drop): Dropout(p=0.0, inplace=False)\n        (sr): Conv2d(64, 64, kernel_size=(8, 8), stride=(8, 8))\n        (norm): LayerNorm((64,), eps=1e-05, elementwise_affine=True)\n      )\n      (drop_path): DropPath()\n      (norm2): LayerNorm((64,), eps=1e-06, elementwise_affine=True)\n      (mlp): Mlp(\n        (fc1): Linear(in_features=64, out_features=256, bias=True)\n        (dwconv): DWConv(\n          (dwconv): Conv2d(256, 256, kernel_size=(3, 3), stride=(1, 1), padding=(1, 1), groups=256)\n        )\n        (act): GELU(approximate='none')\n        (fc2): Linear(in_features=256, out_features=64, bias=True)\n        (drop): Dropout(p=0.0, inplace=False)\n      )\n    )\n  )\n  (norm1): LayerNorm((64,), eps=1e-06, elementwise_affine=True)\n  (block2): ModuleList(\n    (0-5): 6 x Block(\n      (norm1): LayerNorm((128,), eps=1e-06, elementwise_affine=True)\n      (attn): Attention(\n        (q): Linear(in_features=128, out_features=128, bias=True)\n        (kv): Linear(in_features=128, out_features=256, bias=True)\n        (attn_drop): Dropout(p=0.0, inplace=False)\n        (proj): Linear(in_features=128, out_features=128, bias=True)\n        (proj_drop): Dropout(p=0.0, inplace=False)\n        (sr): Conv2d(128, 128, kernel_size=(4, 4), stride=(4, 4))\n        (norm): LayerNorm((128,), eps=1e-05, elementwise_affine=True)\n      )\n      (drop_path): DropPath()\n      (norm2): LayerNorm((128,), eps=1e-06, elementwise_affine=True)\n      (mlp): Mlp(\n        (fc1): Linear(in_features=128, out_features=512, bias=True)\n        (dwconv): DWConv(\n          (dwconv): Conv2d(512, 512, kernel_size=(3, 3), stride=(1, 1), padding=(1, 1), groups=512)\n        )\n        (act): GELU(approximate='none')\n        (fc2): Linear(in_features=512, out_features=128, bias=True)\n        (drop): Dropout(p=0.0, inplace=False)\n      )\n    )\n  )\n  (norm2): LayerNorm((128,), eps=1e-06, elementwise_affine=True)\n  (block3): ModuleList(\n    (0-39): 40 x Block(\n      (norm1): LayerNorm((320,), eps=1e-06, elementwise_affine=True)\n      (attn): Attention(\n        (q): Linear(in_features=320, out_features=320, bias=True)\n        (kv): Linear(in_features=320, out_features=640, bias=True)\n        (attn_drop): Dropout(p=0.0, inplace=False)\n        (proj): Linear(in_features=320, out_features=320, bias=True)\n        (proj_drop): Dropout(p=0.0, inplace=False)\n        (sr): Conv2d(320, 320, kernel_size=(2, 2), stride=(2, 2))\n        (norm): LayerNorm((320,), eps=1e-05, elementwise_affine=True)\n      )\n      (drop_path): DropPath()\n      (norm2): LayerNorm((320,), eps=1e-06, elementwise_affine=True)\n      (mlp): Mlp(\n        (fc1): Linear(in_features=320, out_features=1280, bias=True)\n        (dwconv): DWConv(\n          (dwconv): Conv2d(1280, 1280, kernel_size=(3, 3), stride=(1, 1), padding=(1, 1), groups=1280)\n        )\n        (act): GELU(approximate='none')\n        (fc2): Linear(in_features=1280, out_features=320, bias=True)\n        (drop): Dropout(p=0.0, inplace=False)\n      )\n    )\n  )\n  (norm3): LayerNorm((320,), eps=1e-06, elementwise_affine=True)\n  (block4): ModuleList(\n    (0-2): 3 x Block(\n      (norm1): LayerNorm((512,), eps=1e-06, elementwise_affine=True)\n      (attn): Attention(\n        (q): Linear(in_features=512, out_features=512, bias=True)\n        (kv): Linear(in_features=512, out_features=1024, bias=True)\n        (attn_drop): Dropout(p=0.0, inplace=False)\n        (proj): Linear(in_features=512, out_features=512, bias=True)\n        (proj_drop): Dropout(p=0.0, inplace=False)\n      )\n      (drop_path): DropPath()\n      (norm2): LayerNorm((512,), eps=1e-06, elementwise_affine=True)\n      (mlp): Mlp(\n        (fc1): Linear(in_features=512, out_features=2048, bias=True)\n        (dwconv): DWConv(\n          (dwconv): Conv2d(2048, 2048, kernel_size=(3, 3), stride=(1, 1), padding=(1, 1), groups=2048)\n        )\n        (act): GELU(approximate='none')\n        (fc2): Linear(in_features=2048, out_features=512, bias=True)\n        (drop): Dropout(p=0.0, inplace=False)\n      )\n    )\n  )\n  (norm4): LayerNorm((512,), eps=1e-06, elementwise_affine=True)\n)", "parameters": [["patch_embed1.proj.weight", [64, 3, 7, 7]], ["patch_embed1.proj.bias", [64]], ["patch_embed1.norm.weight", [64]], ["patch_embed1.norm.bias", [64]], ["patch_embed2.proj.weight", [128, 64, 3, 3]], ["patch_embed2.proj.bias", [128]], ["patch_embed2.norm.weight", [128]], ["patch_embed2.norm.bias", [128]], ["patch_embed3.proj.weight", [320
…
 320, 409600, 1280, 11520, 1280, 409600, 320, 320, 320, 102400, 320, 204800, 640, 102400, 320, 409600, 320, 320, 320, 320, 320, 409600, 1280, 11520, 1280, 409600, 320, 320, 320, 512, 512, 262144, 512, 524288, 1024, 262144, 512, 512, 512, 1048576, 2048, 18432, 2048, 1048576, 512, 512, 512, 262144, 512, 524288, 1024, 262144, 512, 512, 512, 1048576, 2048, 18432, 2048, 1048576, 512, 512, 512, 262144, 512, 524288, 1024, 262144, 512, 512, 512, 1048576, 2048, 18432, 2048, 1048576, 512, 512, 512]}, {"name": "decoder", "id": 137277474536720, "class_name": "MAnetDecoder(\n  (center): PAB(\n    (top_conv): Conv2d(512, 256, kernel_size=(1, 1), stride=(1, 1))\n    (center_conv): Conv2d(512, 256, kernel_size=(1, 1), stride=(1, 1))\n    (bottom_conv): Conv2d(512, 512, kernel_size=(3, 3), stride=(1, 1), padding=(1, 1))\n    (map_softmax): Softmax(dim=1)\n    (out_conv): Conv2d(512, 512, kernel_size=(3, 3), stride=(1, 1), padding=(1, 1))\n  )\n  (blocks): ModuleList(\n    (0): MFAB(\n      (hl_conv): Sequential(\n        (0): Conv2dReLU(\n          (0): Conv2d(512, 512, kernel_size=(3, 3), stride=(1, 1), padding=(1, 1), bias=False)\n          (1): BatchNorm2d(512, eps=1e-05, momentum=0.1, affine=True, track_running_stats=True)\n          (2): Mish(inplace=True)\n        )\n        (1): Conv2dReLU(\n          (0): Conv2d(512, 320, kernel_size=(1, 1), stride=(1, 1), bias=False)\n          (1): BatchNorm2d(320, eps=1e-05, momentum=0.1, affine=True, track_running_stats=True)\n          (2): Mish(inplace=True)\n        )\n      )\n      (SE_ll): Sequential(\n        (0): AdaptiveAvgPool2d(output_size=1)\n        (1): Conv2d(320, 20, kernel_size=(1, 1), stride=(1, 1))\n        (2): Mish(inplace=True)\n        (3): Conv2d(20, 320, kernel_size=(1, 1), stride=(1, 1))\n        (4): Sigmoid()\n      )\n      (SE_hl): Sequential(\n        (0): AdaptiveAvgPool2d(output_size=1)\n        (1): Conv2d(320, 20, kernel_size=(1, 1), stride=(1, 1))\n        (2): Mish(inplace=True)\n        (3): Conv2d(20, 320, kernel_size=(1, 1), stride=(1, 1))\n        (4): Sigmoid()\n      )\n      (conv1): Conv2dReLU(\n        (0): Conv2d(640, 1024, kernel_size=(3, 3), stride=(1, 1), padding=(1, 1), bias=False)\n        (1): BatchNorm2d(1024, eps=1e-05, momentum=0.1, affine=True, track_running_stats=True)\n        (2): Mish(inplace=True)\n      )\n      (conv2): Conv2dReLU(\n        (0): Conv2d(1024, 1024, kernel_size=(3, 3), stride=(1, 1), padding=(1, 1), bias=False)\n        (1): BatchNorm2d(1024, eps=1e-05, momentum=0.1, affine=True, track_running_stats=True)\n        (2): Mish(inplace=True)\n      )\n    )\n    (1): MFAB(\n      (hl_conv): Sequential(\n        (0): Conv2dReLU(\n          (0): Conv2d(1024, 1024, kernel_size=(3, 3), stride=(1, 1), padding=(1, 1), bias=False)\n          (1): BatchNorm2d(1024, eps=1e-05, momentum=0.1, affine=True, track_running_stats=True)\n          (2): Mish(inplace=True)\n        )\n        (1): Conv2dReLU(\n          (0): Conv2d(1024, 128, kernel_size=(1, 1), stride=(1, 1), bias=False)\n          (1): BatchNorm2d(128, eps=1e-05, momentum=0.1, affine=True, track_running_stats=True)\n          (2): Mish(inplace=True)\n        )\n      )\n      (SE_ll): Sequential(\n        (0): AdaptiveAvgPool2d(output_size=1)\n        (1): Conv2d(128, 8, kernel_size=(1, 1), stride=(1, 1))\n        (2): Mish(inplace=True)\n        (3): Conv2d(8, 128, kernel_size=(1, 1), stride=(1, 1))\n        (4): Sigmoid()\n      )\n      (SE_hl): Sequential(\n        (0): AdaptiveAvgPool2d(output_size=1)\n        (1): Conv2d(128, 8, kernel_size=(1, 1), stride=(1, 1))\n        (2): Mish(inplace=True)\n        (3): Conv2d(8, 128, kernel_size=(1, 1), stride=(1, 1))\n        (4): Sigmoid()\n      )\n      (conv1): Conv2dReLU(\n        (0): Conv2d(256, 512, kernel_size=(3, 3), stride=(1, 1), padding=(1, 1), bias=False)\n        (1): BatchNorm2d(512, eps=1e-05, momentum=0.1, affine=True, track_running_stats=True)\n        (2): Mish(inplace=True)\n      )\n      (conv2): Conv2dReLU(\n        (0): Conv2d(512, 512, kernel_size=(3, 3), stride=(1, 1), padding=(1, 1), bias=False)\n        (1): BatchNorm2d(512, eps=1e-05, momentum=0.1, affine=True, track_running_stats=True)\n        (2): Mish(inplace=True)\n      )\n    )\n    (2): MFAB(\n      (hl_conv): Sequential(\n        (0): Conv2dReLU(\n          (0): Conv2d(512, 512, kernel_size=(3, 3), stride=(1, 1), padding=(1, 1), bias=False)\n          (1): BatchNorm2d(512, eps=1e-05, momentum=0.1, affine=True, track_running_stats=True)\n          (2): Mish(inplace=True)\n        )\n        (1): Conv2dReLU(\n          (0): Conv2d(512, 64, kernel_size=(1, 1), stride=(1, 1), bias=False)\n          (1): BatchNorm2d(64, eps=1e-05, momentum=0.1, affine=True, track_running_stats=True)\n          (2): Mish(inplace=True)\n        )\n      )\n      (SE_ll): Sequential(\n        (0): AdaptiveAvgPool2d(output_size=1)\n        (1): Conv2d(64, 4, kernel_size=(1, 1), stride=(1, 1))\n        (2): Mish(inplace=True)\n        (3): Conv2d(4, 64, kernel_size=(1, 1), stride=(1, 1))\n        (4): Sigmoid()\n      )\n      (SE_hl): Sequential(\n        (0): AdaptiveAvgPool2d(output_size=1)\n        (1): Conv2d(64, 4, kernel_size=(1, 1), stride=(1, 1))\n        (2): Mish(inplace=True)\n        (3): Conv2d(4, 64, kernel_size=(1, 1), stride=(1, 1))\n        (4): Sigmoid()\n      )\n      (conv1): Conv2dReLU(\n        (0): Conv2d(128, 256, kernel_size=(3, 3), stride=(1, 1), padding=(1, 1), bias=False)\n        (1): BatchNorm2d(256, eps=1e-05, momentum=0.1, affine=True, track_running_stats=True)\n        (2): Mish(inplace=True)\n      )\n      (conv2): Conv2dReLU(\n        (0): Conv2d(256, 256, kernel_size=(3, 3), stride=(1, 1), padding=(1, 1), bias=False)\n        (1): BatchNorm2d(256, eps=1e-05, momentum=0.1, affine=True, track_running_stats=True)\n        (2): Mish(inplace=True)\n      )\n    )\n    (3): DecoderBlock(\n      (conv1): Conv2dReLU(\n        (0): Conv2d(256, 128, kernel_size=(3, 3), stride=(1, 1), padding=(1, 1), bias=False)\n        (1): BatchNorm2d(128, eps=1e-05, momentum=0.1, affine=True, track_running_stats=True)\n        (2): Mish(inplace=True)\n      )\n      (conv2): Conv2dReLU(\n        (0): Conv2d(128, 128, kernel_size=(3, 3), stride=(1, 1), padding=(1, 1), bias=False)\n        (1): BatchNorm2d(128, eps=1e-05, momentum=0.1, affine=True, track_running_stats=True)\n        (2): Mish(inplace=True)\n      )\n    )\n    (4): DecoderBlock(\n      (conv1): Conv2dReLU(\n        (0): Conv2d(128, 64, kernel_size=(3, 3), stride=(1, 1), padding=(1, 1), bias=False)\n        (1): BatchNorm2d(64, eps=1e-05, momentum=0.1, affine=True, track_running_stats=True)\n        (2): Mish(inplace=True)\n      )\n      (conv2): Conv2dReLU(\n        (0): Conv2d(64, 64, kernel_size=(3, 3), stride=(1, 1), padding=(1, 1), bias=False)\n        (1): BatchNorm2d(64, eps=1e-05, momentum=0.1, affine=True, track_running_stats=True)\n        (2): Mish(inplace=True)\n      )\n    )\n  )\n)", "parameters": [["center.top_conv.weight", [256, 512, 1, 1]], ["center.top_conv.bias", [256]], ["center.center_conv.weight", [256, 512, 1, 1]], ["center.center_conv.bias", [256]], ["center.bottom_conv.weight", [512, 512, 3, 3]], ["center.bottom_conv.bias", [512]], ["center.
…
